backend/ckpts/50.pth (torch, 54584 bytes, 11 tensors)

interacted_item_embed f4 [123, 25]
-1.2600083 -1.1765174 0.92302436 -1.126323 0.5803482 0.6038869 0.71366847 0.69416654
0.060188264 -0.27158946 0.052714925 -0.2684983 0.13802345 0.076062776 1.5286784 0.42843533
1.1409929 -0.6067116 1.1185379 1.0498474 -0.39780387 -0.34749502 -0.65686136 -0.5687894
0.2706954 0.3249582 -0.34038183 -0.37466317 0.13404155 -1.6186177 0.42289484 0.15610254
1.0031744 -0.22068454 -0.98814034 -0.026705435 -0.523521 -0.5931395 -0.19224332 1.2422396
-2.4827385 -0.15935679 -0.36594474 -0.17145921 0.35801995 -0.43304658 0.7818614 -0.16092902
0.2978276 0.41017833 -0.7060488 -0.45324108 -0.80299896 0.54755795 -0.62903494 0.9305244
-0.45604408 -0.10897427 0.7984869 1.5496488 0.39837995 0.69098556 -1.5416641 -0.30828467
0.95550895 0.06166861 -0.3555651 0.2882557 -0.65460914 0.886464 -0.26240894 -0.88915706
0.08531043 -0.29982755 0.28956994 -0.39069358 1.3694376 -0.9679564 0.6881959 -0.6506818
-0.9211374 -0.5307178 0.5581606 -0.06214169 -0.44381833 -0.592909 0.61838084 0.5703029
-0.58054394 -0.013679351 0.39252016 -0.1385376 -0.7082919 0.33574644 -0.27780607 -0.20372263
0.34886405 0.62769735 0.09906342 0.5479325 0.04936607 0.31000495 0.83975023 -0.013498816
-0.1298023 0.3530525 0.8528699 -0.23603153 0.7762051 1.1748289 -0.9132229 0.5760085
1.2892314 1.2705278 -0.94194007 -0.8132159 -0.42210338 -0.48503608 -0.019928107 -0.76948935
0.1642335 0.41340765 -0.9620754 -1.0315633 -0.3225859 -0.074803255 0.22386879 -0.28293166
0.018772874 -0.54452777 0.44734824 -0.11784936 1.9407716 0.31733316 0.59540474 -0.4071351
-1.1804324 1.687511 -1.1714728 0.67023444 1.1997749 -1.1870826 -0.16520229 0.60322994
-0.7692159 0.15298216 -0.07698323 0.5601881 -1.5270294 -0.45101747 0.18930833 -0.71819615
-0.4126472 -0.3050072 -1.517746 -0.85351366 1.0271335 -0.23490207 -0.77749544 0.39700773
0.21441868 -0.5987408 0.00092107634 0.18334976 -0.33829722 -1.494133 0.6493471 0.3890287
0.17014699 0.5004569 0.17167902 -0.7281434 -0.53391945 -0.6872049 0.67187095 -0.7331441
0.60451704 -0.008150447 -0.1059709 -0.13070647 0.24444026 0.7097938 0.3825483 -0.6809236
-0.17248988 -0.62714666 -0.61744285 -0.5574926 -1.1245128 -0.17696464 -1.1941354 -0.018194526
0.27121836 0.26004905 0.7241759 -0.9606248 0.9819203 -0.6923797 -0.5277876 -0.16619562
-0.26257575 1.2955909 0.33117598 -1.0187758 -1.3496925 0.7384676 1.60893 -0.988397
0.47942796 0.48151132 -0.2662181 -0.68255913 0.3650429 -0.39329585 -1.0695667 0.74467933
1.139818 -0.55188125 0.63742274 -1.8372421 0.011823396 0.3297007 -0.9919076 -0.097027525
1.1071131 -1.0563163 -1.0222934 -0.96543056 0.3469273 0.83752 -0.035624262 0.27953234
-0.42937073 -0.099648304 -0.267071 -0.5831884 0.40727 0.30997956 1.4580989 -0.14082947
0.5514179 -0.33863088 0.81922334 1.0240445 0.36447734 -0.26252282 0.75168586 0.19671175
0.32334283 -0.47911006 -0.8779493 0.24200173 1.578735 1.6094517 -0.51394737 0.41643652
00000000: f447 a1bf 1f98 96bf 534b 6c3f 5a2b 90bf
00000010: b391 143f 5598 1a3f fab2 363f e6b4 313f
00000020: f887 763d c60d 8bbe 9beb 573d 9c78 89be
00000030: 0556 0d3e cdc6 9b3d bcab c33f e05b db3e
00000040: 0e0c 923f 7451 1bbf 402c 8f3f 6661 863f
00000050: f3ac cbbe deea b1be 1128 28bf 2f9c 11bf
00000060: 9698 8a3e ec60 a63e 8746 aebe dad3 bfbe
00000070: 3042 093e dd2e cfbf ac85 d83e 58d9 1f3e
00000080: 0568 803f 21fb 61be c4f6 7cbf 5bc5 dabc
00000090: 7905 06bf fed7 17bf 6fdb 44be b501 9f3f
000000a0: 30e5 1ec0 6d2e 23be 1c5d bbbe 0193 2fbe
000000b0: 644e b73e 48b8 ddbe 1228 483f 94ca 24be
000000c0: dc7c 983e e502 d23e 9dbf 34bf 370f e8be
000000d0: 5791 4dbf c22c 0c3f 6f08 21bf d936 6e3f
000000e0: 9c7e e9be e72d dfbd a369 4c3f e45a c63f
000000f0: 75f8 cb3e 6ee4 303f 4055 c5bf 7dd7 9dbe
00000100: 3c9c 743f 3998 7c3d a10c b6be 4096 933e
00000110: 7794 27bf 4eef 623f 775a 86be cc9f 63bf
00000120: 3cb7 ae3d ff82 99be 8342 943e fd08 c8be
00000130: bb49 af3f fecb 77bf 9b2d 303f 1593 26bf
00000140: a9cf 6bbf 1fdd 07bf 9de3 0e3f 4988 7ebd
00000150: 283c e3be e2c8 17bf 354e 1e3f 5fff 113f
00000160: 879e 14bf 5b1f 60bc 67f8 c83e cddc 0dbe
00000170: 9e52 35bf f5e6 ab3e 993c 8ebe aa9c 50be
00000180: 4f9e b23e c6b0 203f c3e1 ca3d 4e45 0c3f
00000190: 1434 4a3d f8b8 9e3e dff9 563f 232a 5dbc
000001a0: e5ea 04be 4cc3 b43e af55 5a3f 40b2 71be
000001b0: 61b5 463f cb60 963f fac8 69bf 4b75 133f
000001c0: 8905 a53f a8a0 a23f fc22 71bf eb2e 50bf
000001d0: ef1d d8be a656 f8be 4540 a3bc 41fd 44bf
000001e0: d42c 283e 2baa d33e 934a 76bf 440a 84bf
000001f0: fb29 a5be 7332 99bd dc3d 653e 6bdc 90be
00000200: 92c9 993c 2c66 0bbf d40a e53e 015b f1bd
00000210: 346b f83f 7e79 a23e 726c 183f 0374 d0be
00000220: 6918 97bf 5c00 d83f d2f2 95bf 7c94 2b3f
00000230: 3992 993f 53f2 97bf ca2a 29be 476d 1a3f
00000240: 55eb 44bf 5ba7 1c3e 62a9 9dbd 7d68 0f3f
00000250: b375 c3bf c3eb e6be 0bda 413e b4db 37bf
00000260: 7e46 d3be e729 9cbe 8045 c2bf df7f 5abf
00000270: 1c79 833f 2b8a 70be f109 47bf 9944 cb3e
00000280: 9290 5b3e 1447 19bf 6374 713a 0ac0 3b3e
00000290: 4b35 adbe c03f bfbf 9d3b 263f c52e c73e
000002a0: 033b 2e3e f21d 003f a0cc 2f3e 9b67 3abf
000002b0: f2ae 08bf a9ec 2fbf bcff 2b3f 55af 3bbf
000002c0: a1c1 1a3f 7489 05bc 4507 d9bd ebd7 05be
000002d0: 8c4e 7a3e 0cb5 353f 5fdd c33e 0251 2ebf
000002e0: 30a1 30be af8c 20bf bc10 1ebf d6b7 0ebf
000002f0: 09f0 8fbf 3836 35be 6ed9 98bf b00c 95bc
00000300: 22dd 8a3e 2625 853e 9763 393f 82eb 75bf
00000310: 215f 7b3f cc3f 31bf 171d 07bf 2f2f 2abe
00000320: 5470 86be ecd5 a53f e68f a93e 3f67 82bf
00000330: b9c2 acbf 360c 3d3f 6bf1 cd3f 9607 7dbf
00000340: 9577 f53e a788 f63e bd4d 88be 32bc 2ebf
00000350: e7e6 ba3e 135e c9be 90e7 88bf 4ea3 3e3f
00000360: 8ee5 913f 1748 0dbf 232e 233f c02a ebbf
00000370: ebb6 413c 88ce a83e a8ed 7dbf 5eb6 c6bd
00000380: e2b5 8d3f 5f35 87bf 83da 82bf 7526 77bf
00000390: 74a0 b13e b667 563f bfea 11bd dd1e 8f3e
000003a0: 7bd6 dbbe 6914 ccbd 88bd 88be d64b 15bf
000003b0: b285 d03e a4b5 9e3e fca2 ba3f 9a35 10be
000003c0: b929 0d3f 0761 adbe 9fb8 513f e413 833f
000003d0: c69c ba3e 6469 86be 7c6e 403f ce6e 493e
000003e0: 318d a53e ea4d f5be 49c1 60bf 4dcf 773e
000003f0: fd13 ca3f 8302 ce3f 0e92 03bf 2b37 d53e

item_embed.weight f4 [123, 25]
0.5226546 1.2023957 -0.44269124 0.9301363 -0.8447577 0.011818862 0.13649598 0.43106574
0.4477335 1.0096253 0.3074389 0.5595792 -0.52145904 0.18219908 -0.522577 -0.7226117
-0.35278368 0.14744748 -0.0019494348 -0.7887091 0.26572305 -1.1332309 -0.8413595 1.1411272
0.07221538 -0.6570253 -0.45425934 0.10362781 0.38306105 0.08451911 -0.40062225 0.17048758
-0.30633843 -0.28854182 1.018301 -1.0226922 0.37661445 0.50146216 0.2083515 0.43592563
1.8435153 0.7389012 0.5011611 0.03293789 -0.6260215 0.032824606 0.08265701 -0.059587974
-0.00058771955 -0.09827968 0.14630465 0.43126693 -0.20904118 0.46937954 -0.53768206 -0.22763675
0.97772306 1.3573536 0.0038983633 -0.6604413 -0.019140705 -0.33124605 0.71174276 0.061975475
1.1058137 0.3804971 0.660042 0.033482805 0.49780223 -1.1937467 -0.37048483 0.55678606
-0.11373723 0.14660224 0.09664692 -0.68732363 -0.82258743 -0.061915565 0.31541473 -0.7054196
-0.049651194 0.37982622 -0.019521803 0.12513486 0.43853852 -0.048777528 0.12179264 0.38510007
0.40994695 0.005013057 -0.1259539 0.40540478 0.7194993 0.38895595 -0.48375925 0.0290828
0.3997073 -0.5684146 -0.016657796 -0.43886477 -0.5072521 -0.82554364 -0.57643723 0.4618608
-0.75800276 -1.427099 -0.3744491 0.7636462 -0.16959837 -0.4050457 0.32825187 -0.49796316
-0.44045997 -0.23712839 0.9960307 0.53503335 0.5067528 0.24664912 -0.39953464 -0.2800813
-0.14676319 0.8404724 0.23295607 0.5039728 0.8002155 -0.35846576 -0.456707 -0.03490734
0.60614246 -0.73261064 -0.48703465 0.14827318 0.5476498 -0.11695315 0.4794967 0.4315525
0.2886498 -1.0975457 -0.7233977 0.39509526 -0.3105152 0.3955858 0.5704361 0.9640106
-0.07269438 -0.29480907 -0.38709617 -0.41347086 0.7593875 0.22566183 -0.3302931 0.7068009
-0.6499958 0.7529907 1.4833933 0.5409397 -0.24863508 0.29324245 0.45877 0.1293169
-0.80967563 0.87268347 -0.43183324 0.050068025 0.40497282 0.83935374 0.5241236 -0.064182945
0.4217836 -0.66652244 0.5990875 0.89674824 0.02486659 0.71033573 -0.60970706 0.069374084
0.50580704 -0.7495413 0.35216102 -0.4715947 0.41309077 -0.9988564 -0.29606137 0.22331673
0.24602827 0.7275738 1.2156765 0.7774574 0.86273646 0.016356606 0.2089488 -0.14050119
0.30437028 0.7430677 -0.9157419 1.0209991 -1.6498498 0.49140993 1.0926168 -0.10095402
-0.10796536 -0.80163914 -0.9271642 0.8794381 1.007204 -0.24428566 -0.24877074 0.68925476
-0.0629981 0.3940931 0.59172314 1.003301 -0.46187392 0.18637682 1.6055307 -0.70672446
0.48601753 0.87338173 -0.54582703 1.2447921 0.40009946 0.6040943 0.5524901 0.61365706
-0.7101389 -0.18597457 0.18701082 -0.7885743 0.10648663 -1.5167125 0.36116698 -0.38116154
-0.17401323 -0.6723631 0.40087587 -0.040834557 0.8148761 0.061949007 -0.28413126 -0.89252126
-0.9329383 0.6973691 -0.2513899 -1.2673177 -0.14386514 -0.47719392 -0.13765769 -0.4262124
1.458465 0.79349095 0.2089466 0.15345022 -1.8075607 -1.5404121 -0.3153427 0.28434366
00000000: b1cc 053f 1ae8 993f 6da8 e2be 6a1d 6e3f
00000010: 0a42 58bf e6a3 413c 9ac5 0b3e a6b4 dc3e
00000020: 533d e53e 673b 813f a268 9d3e 9540 0f3f
00000030: 577e 05bf 6592 3a3e 9bc7 05bf 15fd 38bf
00000040: 10a0 b4be 79fc 163e 2d84 ffba d7e8 49bf
00000050: da0c 883e b60d 91bf 5663 57bf 7510 923f
00000060: a8e5 933d cf32 28bf ae94 e8be d13a d43d
00000070: 9420 c43e 5b18 ad3d 5c1e cdbe 4c94 2e3e
00000080: 64d8 9cbe c1bb 93be b057 823f 94e7 82bf
00000090: 9cd3 c03e d35f 003f 185a 553e a531 df3e
000000a0: 4ff8 eb3f a128 3d3f 184c 003f e2e9 063d
000000b0: f242 20bf 1873 063d 1448 a93d 8512 74bd
000000c0: 3111 1aba db46 c9bd e3d0 153e 05cf dc3e
000000d0: e40e 56be 8452 f03e 88a5 09bf 9c19 69be
000000e0: 0f4c 7a3f c3bd ad3f af7b 7f3b ae12 29bf
000000f0: f8cc 9cbc 1599 a9be c634 363f ffd9 7d3d
00000100: 4e8b 8d3f 84d0 c23e 83f8 283f 4425 093d
00000110: efdf fe3e b1cc 98bf 30b0 bdbe 8889 0e3f
00000120: 11ef e8bd e61e 163e d2ee c53d 71f4 2fbf
00000130: 1795 52bf 2d9b 7dbd 0a7e a13e 6196 34bf
00000140: 0d5f 4bbd 9578 c23e 30ec 9fbc 5a23 003e
00000150: 1f88 e03e f2ca 47bd 6b6e f93d d62b c53e
00000160: 91e4 d13e 9244 a43b 0ffa 00be 3791 cf3e
00000170: 1b31 383f 3c25 c73e 4baf f7be 0d3f ee3c
00000180: 6fa6 cc3e 9f83 11bf ee75 88bc e2b2 e0be
00000190: 46db 01bf d456 53bf 6491 13bf 0579 ec3e
000001a0: 780c 42bf 2eab b6bf cbb7 bfbe 517e 433f
000001b0: 32ab 2dbe 2662 cfbe a110 a83e 07f5 febe
000001c0: f883 e1be c9d1 72be defb 7e3f f2f7 083f
000001d0: 8dba 013f 9691 7c3e ce8f ccbe d166 8fbe
000001e0: 1749 16be 3329 573f 098c 6e3e 5d04 013f
000001f0: ecda 4c3f d388 b7be 80d5 e9be 00fb 0ebd
00000200: 272c 1b3f 5f8c 3bbf 9b5c f9be edd4 173e
00000210: c732 0c3f 2285 efbd 9780 f53e 73f4 dc3e
00000220: e8c9 933e 617c 8cbf 9730 39bf ed49 ca3e
00000230: d9fb 9ebe 398a ca3e 1a08 123f 66c9 763f
00000240: cbe0 94bd 37f1 96be 7831 c6be 74b2 d3be
00000250: 3867 423f e513 673e 2d1c a9be e7f0 343f
00000260: 2066 26bf 00c4 403f d5df bd3f 067b 0a3f
00000270: 329a 7ebe e023 963e e7e3 ea3e a66b 043e
00000280: e746 4fbf 2f68 5f3f 3f19 ddbe 2114 4d3d
00000290: 9958 cf3e e3df 563f f72c 063f 5972 83bd
000002a0: 05f4 d73e 37a1 2abf cc5d 193f 4b91 653f
000002b0: 05b5 cb3c 90d8 353f c315 1cbf 0014 8e3d
000002c0: 927c 013f f0e1 3fbf 734e b43e dc74 f1be
000002d0: a280 d33e 0eb5 7fbf 5b95 97be 24ad 643e
000002e0: d6ee 7b3e 4742 3a3f 4a9b 9b3f 7307 473f
000002f0: 4cdc 5c3f 4afe 853c adf6 553e 8bdf 0fbe
00000300: 6cd6 9b3e af39 3e3f 106e 6abf 19b0 823f
00000310: 472e d3bf 159a fb3e deda 8b3f fbc0 cebd
00000320: f11c ddbd 3938 4dbf a25a 6dbf db22 613f
00000330: 10ec 803f 0526 7abe c2bd 7ebe 0073 303f
00000340: 2605 81bd 92c6 c93e 2b7b 173f 2b6c 803f
00000350: bd7a ecbe 91d9 3e3e 0882 cd3f e5eb 34bf
00000360: 4ad7 f83e f295 5f3f 52bb 0bbf 5955 9f3f
00000370: d6d9 cc3e eda5 1a3f fe6f 0d3f a118 1d3f
00000380: aacb 35bf 1e70 3ebe c47f 3f3e 01e0 49bf
00000390: aa15 da3d a323 c2bf e1ea b83e 9b27 c3be
000003a0: 8630 32be fd1f 2cbf 9a3f cd3e 2342 27bd
000003b0: b89b 503f 3ebe 7d3d a779 91be 467c 64bf
000003c0: 0bd5 6ebf c886 323f 2db6 80be 7737 a2bf
000003d0: 6251 13be c352 f4be 23f6 0cbe 8338 dabe
000003e0: fbae ba3f 3922 4b3f 19f6 553e 0e22 1d3e
000003f0: 265e e7bf 392c c5bf 9974 a1be 7e95 913e

c_attn_layers.0.weight f4 [25, 25]
-0.14034057 -0.002780747 0.11756823 0.11710001 0.009792256 -0.014328118 0.014385014 -0.057041038
0.03161649 -0.13709885 -0.10631083 0.11235373 -0.07617438 -0.041667074 0.10153291 0.06180005
-0.046717368 0.07395066 0.11614344 0.15525724 0.034717813 0.12469878 0.12731409 0.12526563
-0.11043568 -0.08279727 -0.053488147 -0.060478043 0.044305645 0.13599713 -0.10346791 -0.11959682
0.11420558 0.048854876 0.09463633 -0.15119705 0.108721696 -0.033484515 -0.09832221 -0.076747775
-0.022031095 0.0696108 -0.14407703 -0.052690364 0.04748886 -0.013915292 0.11799011 -4.4559747e-05
-0.049537536 -0.13525866 0.12251322 0.5077525 0.041550063 0.24618527 0.04525206 0.32016197
0.4376142 0.20482492 0.3838625 0.6980574 0.35563338 0.65254104 0.14807142 0.08322283
-0.0453655 0.0865048 0.6358134 0.05466778 0.18466853 -0.18186235 0.18655924 0.6668319
-0.04922272 -0.030358111 -0.08325942 -0.16375577 -0.44828576 0.033931457 -0.45242706 -0.5267371
-0.3047874 -0.38979185 -0.17462112 -0.195272 -0.48476234 -0.32143316 -0.4861215 -0.07516155
-0.39433348 -0.5697569 -0.23300305 -0.3758395 -0.03101017 -0.51831335 -0.5255597 -0.3042021
-0.34441006 -0.24996826 -0.46259567 -0.5584239 0.054716535 0.8405152 -0.36535373 -0.19470593
-0.083763845 0.07806298 1.0451928 -0.5544508 0.04724431 0.9680542 0.07539016 1.1142476
-0.47134438 -0.08666528 0.054217227 0.24178822 0.9265711 -0.6362069 -0.29152754 -0.104052275
0.27056935 0.80908227 -0.36123458 -0.092922814 -0.07304256 -0.1591276 0.035467107 0.019804552
-0.083519824 0.06851624 -0.09562773 0.04576321 -0.0067990324 0.0070898836 -0.012364936 -0.14060882
0.10237002 -0.07525113 -0.057962317 0.021018134 -0.046663426 -0.0008698401 0.13778287 -0.0069452426
0.03735563 -0.16002743 -0.040819693 0.124697156 -0.09663511 0.11374603 0.14846474 -0.28390914
-0.7053267 -0.6610066 -0.46739644 0.0065474706 -0.18699421 -0.84435564 0.014724267 -0.34903795
0.00510492 -0.379814 -0.5995783 -0.47346255 -0.46106604 0.17228954 -0.25338238 -0.7403843
-0.50181156 -0.53935546 -0.055733543 -0.29986873 -0.6126119 -0.57865083 -0.43270436 -0.09972526
0.08603574 -0.1329118 -0.1517994 -0.12689635 -0.09278982 0.11940961 0.15451552 -0.02348331
-0.14359245 -0.028330836 0.028342504 -0.07577478 0.0066167237 -0.0543692 -0.06392999 0.13177328
0.10565206 -0.13656287 0.06606885 0.02533781 -0.10138509 -0.08054625 -0.11066582 -0.025754612
-0.116163485 0.092501946 0.08997001 0.036053818 -0.1271559 0.005620982 -0.06683714 -0.12655024
-0.06863924 -0.14041539 -0.038481444 0.038563624 0.056695286 -0.107263856 0.05513726 -0.057574216
-0.029157508 0.023561774 0.049524903 0.059967503 -0.012034603 -0.09022104 0.07078637 -0.14568922
0.10973487 0.11189464 -0.007896621 -0.10862774 0.1492683 0.15056752 -0.1280246 0.08778069
-0.11380096 0.1305281 -0.14959982 -0.051550295 -0.023180664 -0.08573923 -0.07979446 0.15402082
-0.13925995 -0.0763516 -0.11069344 -0.011053609 0.08824626 -0.06469708 0.14877191 0.030589934
0.037851032 -0.1505502 -0.032753535 0.1336771 0.12950835 0.15176931 -0.058229014 0.1104996
00000000: 70b5 0fbe 313d 36bb 9dc7 f03d 21d2 ef3d
00000010: b36f 203c 7cc0 6abc 1faf 6b3c dda3 69bd
00000020: 4b80 013d a463 0cbe 7eb9 d9bd b619 e63d
00000030: 5001 9cbd 18ab 2abd 7cf0 cf3d 0d22 7d3d
00000040: b65a 3fbd 7273 973d 9ddc ed3d c1fb 1e3e
00000050: 4434 0e3d 1362 ff3d a05e 023e a245 003e
00000060: 1a2c e2bd 9d91 a9bd 6316 5bbd d3b7 77bd
00000070: d679 353d d542 0b3e fce6 d3bd 2def f4bd
00000080: 9de4 e93d 0d1c 483d b1d0 c13d 66d3 1abe
00000090: 7ba9 de3d 0f27 09bd 285d c9bd f02d 9dbd
000000a0: 8e7a b4bc 1b90 8e3d ee88 13be dad1 57bd
000000b0: ae83 423d f7fc 63bc cca4 f13d aae5 3ab8
000000c0: dfe7 4abd 3f81 0abe 36e8 fa3d 11fc 013f
000000d0: 6630 2a3d fe17 7c3e 395a 393d 45ec a33e
000000e0: f80e e03e a0bd 513e a089 c43e e4b3 323f
000000f0: 9415 b63e ee0c 273f 09a0 173e bb70 aa3d
00000100: 2dd1 39bd 6e29 b13d abc4 223f 52eb 5f3d
00000110: bf19 3d3e 203a 3abe 6309 3f3e 7fb5 2a3f
00000120: c39d 49bd 93b1 f8bc ea83 aabd 98af 27be
00000130: b685 e5be b6fb 0a3d 85a4 e7be 3ed8 06bf
00000140: 180d 9cbe cc92 c7be e1cf 32be 62f5 47be
00000150: c532 f8be e392 a4be ebe4 f8be 4cee 99bd
00000160: 14e6 c9be 97db 11bf 5a98 6ebe 096e c0be
00000170: 0a09 febc 2fb0 04bf 158b 06bf 61c0 9bbe
00000180: 8456 b0be aef7 7fbe 57d9 ecbe def4 0ebf
00000190: 721e 603d 012c 573f a50f bbbe fe60 47be
000001a0: 618c abbd 7cdf 9f3d e1c8 853f 7df0 0dbf
000001b0: 4083 413d 66d2 773f 2866 9a3d aa9f 8e3f
000001c0: 0d54 f1be 917d b1bd e212 5e3d 5597 773e
000001d0: c333 6d3f 75de 22bf 1943 95be 5c19 d5bd
000001e0: 1188 8a3e 0420 4f3f bdf3 b8be 514e bebd
000001f0: 5697 95bd 58f2 22be f545 113d 283d a23c
00000200: 710c abbd 3e52 8c3d 79d8 c3bd 3472 3b3d
00000210: 6bca debb 4152 e83b 4d96 4abc c2fb 0fbe
00000220: 5fa7 d13d 441d 9abd e569 6dbd 392e ac3c
00000230: 2622 3fbd fb05 64ba f416 0d3e eb94 e3bb
00000240: 3802 193d 3bde 23be 8d32 27bd 3961 ff3d
00000250: a1e8 c5bd aef3 e83d 2407 183e 8a5c 91be
00000260: 4a90 34bf bb37 29bf 964e efbe 2a8c d63b
00000270: 697b 3fbe b127 58bf 0d3e 713c 1ab5 b2be
00000280: 2c47 a73b fb76 c2be f77d 19bf af69 f2be
00000290: d910 ecbe ab6c 303e 56bb 81be d389 3dbf
000002a0: b976 00bf 3313 0abf db48 64bd 6588 99be
000002b0: 22d4 1cbf 7622 14bf 6d8b ddbe c23c ccbd
000002c0: 8233 b03d 081a 08be 4d71 1bbe 1ef1 01be
000002d0: 9708 bebd 078d f43d 5139 1e3e 1260 c0bc
000002e0: e609 13be 1216 e8bc 8a2e e83c cf2f 9bbd
000002f0: 1ad1 d83b 3db2 5ebd baed 82bd 93ef 063e
00000300: 1b60 d83d 23d7 0bbe 1b4f 873d 3d91 cf3c
00000310: fca2 cfbd 6ff5 a4bd c3a4 e2bd 56fb d2bc
00000320: 1fe7 edbd a971 bd3d 3242 b83d 2bad 133d
00000330: 2835 02be 3730 b83b e9e1 88bd 6396 01be
00000340: bb92 8cbd 0dc9 0fbe b89e 1dbd e4f4 1d3d
00000350: 5139 683d 27ad dbbd 9cd7 613d f1d2 6bbd
00000360: badb eebc 9f04 c13c a0da 4a3d 7ca0 753d
00000370: c92c 45bc cfc5 b8bd 72f8 903d 8e2f 15be
00000380: adbc e03d 0429 e53d d460 01bc 3878 debd
00000390: cad9 183e 5f2e 1a3e e118 03be 5dc6 b33d
000003a0: 7a10 e9bd 29a9 053e b230 19be 6726 53bd
000003b0: 60e5 bdbc 0d98 afbd 476b a3bd a2b7 1d3e
000003c0: 299a 0ebe 3a5e 9cbd 3eb3 e2bd 321a 35bc
000003d0: 75ba b43d e77f 84bd aa57 183e be97 fa3c
000003e0: af09 1b3d d529 1abe 9228 06bd a6e2 083e
000003f0: d69d 043e 6a69 1b3e 8c81 6ebd 9d4d e23d

c_attn_layers.0.bias f4 [25]
-0.15198958 -0.03637916 0.3760106 -0.08351979 0.31784135 -0.0398929 0.102207005 -0.06069514
-0.15655352 -0.086227864 -0.12195231 0.016748639 -0.12739208 -0.13168874 -0.006832655 -0.15067579
0.3562098 -0.089413874 -0.08548224 -0.034779694 0.43136722 -0.082887866 -0.04319643 0.3402832
-0.1305658
00000000: 28a3 1bbe 5002 15bd 7684 c03e 6c0c abbd
00000010: 1abc a23e bd66 23bd e851 d13d 789b 78bd
00000020: 914f 20be 3c98 b0bd 22c2 f9bd 7134 893c
00000030: 1273 02be 6ad9 06be 77e4 dfbb c14a 1abe
00000040: 2261 b63e 9f1e b7bd 5011 afbd 2775 0ebd
00000050: 2adc dc3e 1dc1 a9bd bdee 30bd 9939 ae3e
00000060: 0bb3 05be

c_attn_layers.2.weight f4 [25, 25]
-0.14464255 -0.09899893 0.3428621 0.0557016 0.68369174 -0.04701525 0.49845278 0.09030185
0.036172006 0.12878968 0.015703103 0.2840665 0.13396989 0.18436342 -0.13477099 -0.05809121
0.7512295 -0.027992945 -0.021124642 -0.009959129 0.7517615 0.052552246 0.16784817 0.5755786
0.026002936 -0.06932429 -0.11627927 -0.46531898 -0.6171816 -0.08711512 -0.10711143 -0.67549515
-0.0940574 -0.0925412 0.14993073 0.07792975 -0.6174688 -0.60487735 -0.21988973 -0.11656445
-0.013261434 -0.062924124 0.012970447 0.05217441 0.09532886 -0.2889863 -0.11422008 -0.37643424
-0.02963761 -0.088694915 0.040972404 -0.10107743 -0.4615849 -0.4697235 -0.7013165 0.0011844755
-0.48750463 0.11696658 0.016040204 -0.056387383 -0.12436812 -0.1776581 -0.2088448 -0.14106558
0.14846638 0.085730605 -0.74214125 0.15542027 0.013096822 0.13108987 -0.80103177 -0.037842903
-0.56071615 -0.4831305 0.06922461 -0.020873018 -0.07466451 -0.7538403 -0.2067508 -0.32679975
-0.14340214 -0.19982183 0.07600735 0.024851026 0.13886523 -0.101928815 -0.42353538 -0.49797687
-0.74621993 -0.051637053 -0.069410786 -0.27999157 0.030037994 -0.11484976 -0.01094991 -0.37176663
-0.017414518 -0.37635314 -0.4484991 0.11986353 -0.07766404 0.07925093 -0.065801345 -0.044708256
-0.3408144 0.0858424 0.00712791 -0.15239558 -0.009550596 0.14215793 0.07433174 0.32194957
0.1230364 0.34711817 -0.13619919 -0.012984743 -0.15935978 0.08996648 -0.1418189 0.11290575
-0.43369353 -0.0049668862 0.2658139 -0.22873767 -0.0028518206 0.0665671 0.021854779 0.26951882
0.20796156 0.62585235 0.05398577 0.46895424 0.15638258 -0.06731785 0.12230417 -0.14040428
-0.031290893 0.20584776 0.20894375 -0.038004547 -0.115766026 0.6358378 -0.017894158 -0.1234053
0.0068484377 0.7854099 -0.14558135 0.35189348 0.51088935 0.06903784 0.05388291 0.08028841
-0.42038864 -0.44138715 -0.06383925 -0.14122386 -0.6016976 0.04415414 0.021678464 -0.010285028
-0.015486529 -0.7978302 -0.48334923 -0.3090305 0.04029448 0.10631514 -0.30491024 -0.03449453
0.14221705 -0.081975006 -0.53842103 -0.136981 -0.45335194 -0.2609327 -0.07473297 -0.030861503
-0.07172932 0.29825556 -0.22287162 -0.63239044 -0.11204072 -0.36168784 0.06670708 0.1450814
0.13296819 -0.10725299 0.026835322 0.36877263 0.07720513 -0.0058545545 -0.026659105 -0.6430955
-0.09774616 -0.14265208 0.111614704 -0.93028975 0.0969636 -0.4097085 -0.7421133 -0.11042694
0.11288284 0.10269375 0.39720863 0.25112334 0.40717155 -0.009853959 0.13202277 -0.03336351
-0.09919065 0.130903 0.07296419 0.08647682 0.27670062 0.3078962 0.020115681 0.11152751
0.5140003 0.10325131 -0.0053307624 0.001889813 0.49049276 -0.074087046 0.10131756 0.48631656
0.02643206 -0.057202667 -0.017007671 -0.28395975 -0.37159646 -0.23149888 0.13356233 -0.39460182
0.056113902 0.022775967 -0.08679166 0.06717377 -0.73376685 -0.5216282 -0.25613272 0.005346712
0.065310635 -0.15634984 -0.14501412 -0.12644103 -0.07900731 -0.4196103 0.10285316 -0.49974754
-0.06915366 -7.228384e-05 -0.06401141 0.07481371 0.44165534 0.25704247 0.5889406 -0.076347984
00000000: 2d1d 14be f3bf cabd 9f8b af3e 5c27 643d
00000010: 6c06 2f3f 1093 40bd 3435 ff3e 2df0 b83d
00000020: 1929 143d 71e1 033e cba3 803c 2a71 913e
00000030: 672f 093e c4c9 3c3e 6801 0abe 0cf1 6dbd
00000040: 9450 403f 7651 e5bc 960d adbc 9d2b 23bc
00000050: 7173 403f 0641 573d 64e0 2b3e 1e59 133f
00000060: 1c04 d53c e5f9 8dbd d323 eebd 4a3e eebe
00000070: 9dff 1dbf 6969 b2bd 3d5d dbbd 40ed 2cbf
00000080: 2ba1 c0bd 3e86 bdbd 7187 193e a299 9f3d
00000090: 6f12 1ebf 3ed9 1abf c62a 61be 58b9 eebd
000000a0: 7c46 59bc 5dde 80bd ff81 543c d6b4 553d
000000b0: c73b c33d 03f6 93be 38ec e9bd fdbb c0be
000000c0: 93ca f2bc aea5 b5bd aed2 273d af01 cfbd
000000d0: db54 ecbe 997f f0be 7a89 33bf 6740 9b3a
000000e0: 359a f9be 2d8c ef3d bf66 833c 75f6 66bd
000000f0: b7b4 febd 01ec 35be 69db 55be 7f73 10be
00000100: 9207 183e 8793 af3d f8fc 3dbf 7e26 1f3e
00000110: 0e94 563c 6c3c 063e 6b10 4dbf 2901 1bbd
00000120: 188b 0fbf e25c f7be a2c5 8d3d e4fd aabc
00000130: b5e9 98bd aefb 40bf 7bb6 53be 4c52 a7be
00000140: 03d8 12be 189e 4cbe bea9 9b3d 6194 cb3c
00000150: b032 0e3e 0ec0 d0bd a1d9 d8be d3f6 febe
00000160: 4508 3fbf 6081 53bd 3e27 8ebd 0e5b 8fbe
00000170: 3d12 f63c 5a36 ebbd 4067 33bc 3258 bebe
00000180: e4a8 8ebc 5cb1 c0be ada1 e5be 037b f53d
00000190: 530e 9fbd 504e a23d dbc2 86bd 0120 37bd
000001a0: 3a7f aebe 24ce af3d 3e91 e93b 960d 1cbe
000001b0: 1a7a 1cbc d991 113e 3d3b 983d 93d6 a43e
000001c0: 82fa fb3d 79b9 b13e cd77 0bbe f6bd 54bc
000001d0: 362f 23be 5940 b83d f938 11be 213b e73d
000001e0: 140d debe 43c1 a2bb c218 883e 353a 6abe
000001f0: 9ce5 3abb 5554 883d cb08 b33c 5ffe 893e
00000200: e0f3 543e dc37 203f 2f20 5d3d c51a f03e
00000210: c122 203e f1dd 89bd 9c7a fa3d 24c6 0fbe
00000220: e12a 00bd c1c9 523e 5af5 553e a8aa 1bbd
00000230: bd16 edbd 44c6 223f c596 92bc ebbb fcbd
00000240: dc68 e03b a010 493f 4713 15be 622b b43e
00000250: a5c9 023f b663 8d3d 54b4 5c3d 406e a43d
00000260: 2e3d d7be 7ffd e1be 27be 82bd fd9c 10be
00000270: db08 1abf f9da 343d 0997 b13c 8982 28bc
00000280: 36bb 7dbc 9a3e 4cbf 8d79 f7be 3f39 9ebe
00000290: d30b 253d c1bb d93d 321d 9cbe 234a 0dbd
000002a0: 59a1 113e 83e2 a7bd f6d5 09bf bf44 0cbe
000002b0: bf1d e8be f998 85be 990d 99bd 43d1 fcbc
000002c0: d2e6 92bd f4b4 983e 7538 64be 57e4 21bf
000002d0: 9b75 e5bd 262f b9be b99d 883d 3890 143e
000002e0: d028 083e 75a7 dbbd c0d5 db3c c4cf bc3e
000002f0: b91d 9e3d 90d7 bfbb 3264 dabc e8a1 24bf
00000300: 242f c8bd 6313 12be 4096 e43d 7827 6ebf
00000310: da94 c63d 50c5 d1be 23fb 3dbf 8527 e2bd
00000320: 1e2f e73d 1a51 d23d ee5e cb3e 3d93 803e
00000330: ca78 d03e 8072 21bc fa30 073e 2da8 08bd
00000340: 7824 cbbd 700b 063e 406e 953d c21a b13d
00000350: b4ab 8d3e 92a4 9d3e a4c9 a43c 8968 e43d
00000360: 8695 033f 6c75 d33d adad aebb 9ab3 f73a
00000370: de21 fb3e f3ba 97bd 957f cf3d 7cfe f83e
00000380: 0c88 d83c 584d 6abd ac53 8bbc 2c63 91be
00000390: e441 bebe 0b0e 6dbe 90c4 083e 4009 cabe
000003a0: b1d7 653d aa94 ba3c d3bf b1bd 6792 893d
000003b0: 25d8 3bbf 6d89 05bf d423 83be 7933 af3b
000003c0: 95c1 853d 2c1a 20be 957e 14be c279 01be
000003d0: 96ce a1bd 29d7 d6be ada4 d23d e9de ffbe
000003e0: 6fa0 8dbd 1797 97b8 6a18 83bd ee37 993d
000003f0: a620 e23e 129b 833e d0c4 163f 555c 9cbd

c_attn_layers.2.bias f4 [25]
0.5395964 -0.58178 -0.6053039 -0.7344801 -0.059503805 0.6048016 -0.708462 0.106323235
0.60129315 -0.8803266 0.5469681 -0.5699633 -0.48373252 -0.51189595 -0.055150148 0.6030797
-0.82031095 -0.3926835 -0.6458716 0.18943766 0.39358792 -0.46424508 -0.11269106 -0.72221094
-0.05241172
00000000: fd22 0a3f 89ef 14bf 32f5 1abf e306 3cbf
00000010: 43ba 73bd 47d4 1a3f c45d 35bf ffbf d93d
00000020: 59ee 193f 165d 61bf 1a06 0c3f 1de9 11bf
00000030: caab f7be 9d0b 03bf 1fe5 61bd 6e63 1a3f
00000040: e6ff 51bf d00d c9be d757 25bf f2fb 413e
00000050: 5b84 c93e 88b1 edbe 92ca e6bd d1e2 38bf
00000060: acad 56bd

w1xb1.weight f4 [25, 25]
-0.55308753 0.027666163 -0.45096567 -0.005770171 0.25278273 -0.6486361 0.10702433 -0.70565265
-0.6709135 -0.09754534 -0.56273323 0.05653668 -0.5808017 -0.17295851 0.53910583 -0.5890992
-0.081487626 -0.40659696 -0.12917688 0.33322164 -0.73815185 0.013086819 -0.4823456 -0.08423659
0.51678056 -0.495265 -0.0702378 -0.042547174 -0.048805423 -0.1011132 -0.44495106 -0.13229427
-0.068914615 -0.4292602 -0.14278196 -0.4512702 -0.22746852 -0.14883082 -0.11229027 0.05347126
-0.37301296 -0.13832222 -0.13938737 0.18856052 0.14661701 -0.3739901 0.060097817 -0.22047248
-0.0060267444 -0.10906429 -0.61727685 -0.069717385 -0.43858847 -0.14360784 -0.29477534 -0.7481914
0.035023063 -0.45521033 -0.60225016 0.12920985 -0.7349929 -0.025191773 -0.4130474 -0.21064112
-0.30747133 -0.7735744 0.0147131095 -0.57090473 -0.094836526 -0.32253262 -0.6876569 -0.10045806
-0.5888105 -0.30271778 -0.29819763 -0.42158404 -0.10295753 -0.118414275 0.23770493 -0.068571165
-0.26567125 -0.0007921294 0.13572685 -0.16962394 -0.14076422 -0.39673194 -0.14143062 0.19305694
0.17574416 -0.049566075 -0.21211359 -0.01689393 0.04731479 0.030584294 -0.25022715 -0.23623188
-0.16777772 -0.06729675 0.02508035 -0.15281034 -0.69303113 -0.15374093 -0.101183 -0.13224398
-0.13663253 -0.49834746 -0.030921878 -0.09779696 -0.42630473 0.10338695 -0.60351896 -0.010897788
-0.09996393 -0.17332125 -0.12510148 -0.54225236 -0.0987929 -0.1571446 -0.1565165 -0.00325404
-0.37292635 -0.074731626 -0.03393937 0.068586856 -0.15384918 -0.59961784 -0.13555983 -0.053705946
-0.020614918 0.03935658 -0.61830115 -0.15407899 -0.21366715 -0.6353313 -0.05286979 -0.41577148
-0.15476607 -0.058641274 0.2634804 -0.032547083 -0.58683646 -0.19141667 -0.19182453 0.247062
0.087182105 -0.64588684 0.07679133 -0.24125226 -0.027952177 -0.02191105 -0.67597437 0.0708137
-0.4815805 -0.04394143 0.30104002 -0.63720083 -0.03300784 -0.7000377 -0.72307694 0.24816144
-0.6031889 0.20760685 -0.35325816 -0.18811586 0.4210854 -0.41947958 -0.0018320079 -0.4301932
-0.15929225 0.23040725 -0.41627306 0.06454786 -0.6869607 -0.20132038 0.4108654 -0.49099624
-0.10287162 -0.22903267 0.014675239 0.4066827 -0.564125 -0.11012974 -0.17410699 -0.45203376
0.05423684 -0.60962003 0.07236421 -0.34124428 -0.31413618 0.33103544 -0.3932654 0.039315227
-0.17343235 -0.32152084 0.34677967 -0.53090674 -0.05960829 -0.19629192 -0.07408258 0.4324823
-0.4160497 -0.055110805 -0.080339395 0.13905726 -0.050035007 -0.51325107 -0.026101993 -0.038575556
-0.47899488 0.038762107 -0.28834093 -0.18501793 -0.17570269 0.119814314 0.05923527 -0.4788628
-0.10860269 -0.06996656 0.12207741 0.17867881 -0.5062753 -0.0137080075 -0.22616842 0.12832409
0.19883591 -0.43465868 -0.09955147 -0.12134394 0.069468416 0.043040656 -0.42061707 -0.13425568
-0.25516063 -0.6043679 -0.07531951 -0.38093182 -0.2595366 -0.23200415 0.0611314 0.17429245
-0.37335962 -0.2885318 -0.262896 0.08972958 0.209233 -0.36129448 -0.14487223 -0.3100679
0.08024041 -0.03794699 -0.5855996 0.10303531 -0.2845369 0.04458293 0.30147147 -0.7323783
00000000: 2597 0dbf 26a4 e23c f9e4 e6be b413 bdbb
00000010: bd6c 813e 040d 26bf 922f db3d a7a5 34bf
00000020: fdc0 2bbf dac5 c7bd 490f 10bf 0193 673d
00000030: 6caf 14bf 091c 31be d702 0a3f 35cf 16bf
00000040: fce2 a6bd 7a2d d0be f246 04be 079c aa3e
00000050: 85f7 3cbf 196a 563c 01f6 f6be 3c84 acbd
00000060: bb4b 043f 6093 fdbe d6d8 8fbd f245 2ebd
00000070: 32e8 47bd 7014 cfbd a0d0 e3be 2678 07be
00000080: 1b23 8dbd fec7 dbbe 6f35 12be e30c e7be
00000090: 82ed 68be 1b67 18be 71f8 e5bd ae04 5b3d
000000a0: 8efb bebe 57a4 0dbe 90bb 0ebe 0216 413e
000000b0: c522 163e a17b bfbe 2129 763d 8ac3 61be
000000c0: ff7b c5bb 195d dfbd db05 1ebf fdc7 8ebd
000000d0: ab8e e0be ef0d 13be cbec 96be 7989 3fbf
000000e0: 5874 0f3d 5411 e9be 112d 1abf 964f 043e
000000f0: 7f28 3cbf fa5e cebc f37a d3be 4eb2 57be
00000100: e26c 9dbe f908 46bf 410f 713c d026 12bf
00000110: a739 c2bd ff22 a5be 480a 30bf f5bc cdbd
00000120: 49bc 16bf d3fd 9abe 5cad 98be ddd9 d7be
00000130: 66db d2bd 2f83 f2bd ec68 733e 0a6f 8cbd
00000140: 1006 88be e7a6 4fba fbfb 0a3e e6b1 2dbe
00000150: 7f24 10be 7320 cbbe 30d3 10be b8b0 453e
00000160: 47f6 333e cc05 4bbd 4e34 59be 2465 8abc
00000170: 27cd 413d ea8b fa3c c61d 80be c5e6 71be
00000180: eccd 2bbe e1d2 89bd 4e75 cd3c 507a 1cbe
00000190: 7d6a 31bf 436e 1dbe 0839 cfbd f76a 07be
000001a0: 66e9 0bbe 6627 ffbe e14f fdbc c649 c8bd
000001b0: 9d44 dabe 8abc d33d 3880 1abf a38c 32bc
000001c0: e4b9 ccbd 207b 31be 9a1a 00be 0dd1 0abf
000001d0: ef53 cabd 84ea 20be dd45 20be bb41 55bb
000001e0: 34f0 bebe e50c 99bd 0204 0bbd 4477 8c3d
000001f0: a48a 1dbe 8e80 19bf 32d0 0abe c4fa 5bbd
00000200: 9ee0 a8bc 5d34 213d fc48 1ebf e2c6 1dbe
00000210: 90cb 5abe 12a5 22bf fe8d 58bd 00e0 d4be
00000220: ff7a 1ebe d531 70bd e7e6 863e 1750 05bd
00000230: ea3a 16bf bb02 44be a66d 44be d2fd 7c3e
00000240: 888c b23d d758 25bf c644 9d3d d50a 77be
00000250: f7fb e4bc cd7e b3bc a80c 2dbf c606 913d
00000260: b891 f6be eefb 33bd eb21 9a3e 981f 23bf
00000270: 3b33 07bd ac35 33bf 921b 39bf 081e 7e3e
00000280: 966a 1abf e496 543e 41de b4be 72a1 40be
00000290: 8198 d73e 07c6 d6be fc1f f0ba 4842 dcbe
000002a0: 821d 23be e1ef 6b3e be21 d5be ab31 843d
000002b0: a8dc 2fbf ee26 4ebe f35c d23e dc63 fbbe
000002c0: 5bae d2bd 8a87 6abe 6a70 703c b738 d03e
000002d0: 7f6a 10bf b38b e1bd 1a49 32be f870 e7be
000002e0: 7327 5e3d 0f10 1cbf b033 943d 92b7 aebe
000002f0: 75d6 a0be 7a7d a93e 155a c9be 0109 213d
00000300: 4098 31be 619e a4be 1b8d b13e 81e9 07bf
00000310: d327 74bd c000 49be 9cb8 97bd 526e dd3e
00000320: 7704 d5be debb 61bd fb88 a4bd 0765 0e3e
00000330: 82f1 4cbd 6c64 03bf d9d3 d5bc 6701 1ebd
00000340: d13e f5be 04c5 1e3d 6ca1 93be 5775 3dbe
00000350: 68eb 33be 3561 f53d afa0 723d 812d f5be
00000360: 166b debd a14a 8fbd b903 fa3d 94f7 363e
00000370: 429b 01bf 8d97 60bc b298 67be 6467 033e
00000380: a49b 4b3e 958b debe a4e1 cbbd 2c83 f8bd
00000390: 7545 8e3d 664b 303d 1f5b d7be 527a 09be
000003a0: 6aa4 82be dbb7 1abf 1e41 9abd 7f09 c3be
000003b0: fbe1 84be 7f92 6dbe eb64 7a3d b879 323e
000003c0: fe28 bfbe 71ba 93be 4e9a 86be 24c4 b73d
000003d0: 2d41 563e 97fb b8be 6359 14be 38c1 9ebe
000003e0: 1655 a43d 4e6e 1bbd dbe9 15bf 2d04 d33d
000003f0: d2ae 91be 979c 363d 785a 9a3e 257d 3bbf

w1xb1.bias f4 [25]
-0.59412223 -0.45460814 -0.7604195 -0.5383854 -0.4696993 -0.5124232 -0.61276543 -0.5287078
-0.49739224 -0.44022048 -0.6307431 -0.41982704 -0.66090935 -0.6269218 -0.6014704 -0.9248749
-0.6485029 -0.9137852 -0.5805088 -0.50180537 -0.32566264 -0.55172163 -0.46679163 -0.46777818
-0.52276266
00000000: 6518 18bf 66c2 e8be daaa 42bf a0d3 09bf
00000010: 6d7c f0be 2b2e 03bf 32de 1cbf 6559 07bf
00000020: 32aa febe 9464 e1be 6178 21bf 92f3 d6be
00000030: 5b31 29bf f27d 20bf f7f9 19bf 9ac4 6cbf
00000040: 4904 26bf d4ed 69bf 3a9c 14bf 5176 00bf
00000050: 41bd a6be a13d 0dbf 50ff eebe 9f80 efbe
00000060: c6d3 05bf

w1p.weight f4 [25, 25]
0.30028245 -0.020388504 0.019305745 0.12741318 -0.05672097 0.2030517 -0.24533783 -0.094696574
0.103457294 -0.04749059 0.14599007 -0.11872015 0.031412616 0.024333727 0.04771028 -0.104182266
-0.21640655 -0.01949048 -0.16356975 0.016435163 0.08728209 0.014073432 0.0037067162 0.06515695
-0.13096134 0.020215603 0.056984484 -0.006070351 -0.0104237385 0.06605137 -0.08388958 -0.11194477
0.051137947 -0.06427512 -0.14799309 -0.0036555983 -0.024186615 -0.032951456 -0.007555367 0.11250587
0.1087614 -0.12799144 0.052393418 -0.1301888 0.061478857 -0.065639324 0.009740429 0.017204998
0.15334031 0.12516038 0.18764482 0.15047047 -0.025345687 0.01784364 0.05771449 0.2186863
0.1648166 0.11033918 -0.025153747 -0.33649984 0.05237306 -0.09820565 -0.076489285 0.109873675
-0.042060476 0.14545603 -0.22857541 -0.16129148 -0.014740531 0.16988851 -0.029144282 0.15001355
0.09552829 0.15907957 -0.014990763 -0.050622262 -0.04132228 0.13204251 -0.09451414 0.15531915
0.038259484 0.018204778 0.05913928 -0.09888709 -0.11369737 0.022694599 0.00095708 0.004314811
0.08718239 -0.029387284 -0.051645838 -0.2014368 0.036491074 -0.17014927 0.10615164 -0.08671843
-0.07546296 -0.057621643 -0.08643954 0.059221398 0.11584664 -0.11254437 0.08309111 -0.14765549
0.20884214 0.086174615 -0.12416683 -0.12898898 0.0014738896 -0.0570026 0.086451076 -0.02305657
0.033719014 0.023913475 -0.055173013 0.037012033 -0.0795828 -0.045664843 -0.188713 0.26681307
0.058655333 -0.1380457 0.07131936 -0.105535 -0.03336471 0.052679192 0.105892375 0.102625854
-0.08594223 0.16354106 0.11000738 0.010180252 0.0227122 -0.054894168 -0.044299092 0.018931054
-0.08615145 -0.049900457 0.040181752 0.028983615 0.00010681575 -0.09359601 -0.09685088 -0.031461567
0.12740128 0.12006648 0.15218072 -0.026584214 -0.09011641 0.10999597 0.20147832 0.05612811
0.17674112 0.021401562 -0.0038349759 0.2581212 -0.16584316 -0.03774533 -0.00620191 -0.0075844773
0.03970574 -0.26058024 -0.033969074 -0.08979943 -0.07196386 -0.066010274 -0.18945234 -0.036856726
-0.09514806 0.0036597727 -0.027674727 -0.04108268 -0.023552533 0.19942974 0.09889588 0.009989065
-0.053972807 0.06644319 0.19401063 0.05908273 0.05652071 0.07530733 -0.0056752004 0.14815971
-0.23347841 0.10701191 -0.17823642 -0.027892144 0.030371305 0.04431705 0.05818225 -0.09850544
0.02031088 -0.06516046 -0.010494754 -0.21360959 0.019487921 0.057399895 0.08525756 0.0048588146
0.106544316 0.041254528 0.11796948 0.11475948 0.168368 0.03244595 -0.18416968 0.03423585
-0.08237343 -0.12146622 -0.110798314 -0.09811129 0.08574599 0.01206293 0.099200025 -0.043670453
-0.13213305 0.053227738 -0.09405339 0.16433167 0.0055383877 -0.0836009 0.059508104 -0.07969191
0.1520191 0.094339356 -0.105409324 0.042000223 -0.07828039 0.13010283 0.07364958 -0.04624639
-0.08401222 0.15607262 -0.0436266 0.11411648 -0.17689992 0.08858445 0.006398836 0.010253409
0.016103256 -0.06953529 -0.0094018215 -0.15631196 0.1364005 -0.12451139 -0.07030963 0.057231795
-0.04151103 0.10354224 0.002416006 -0.105869025 -0.12039778 0.08712728 0.13059251 -0.0135509735
00000000: 9fbe 993e cb05 a7bc 1527 9e3c 9a78 023e
00000010: 3f54 68bd c9ec 4f3e d739 7bbe 47f0 c1bd
00000020: 6be1 d33d 7e85 42bd 6c7e 153e 8d23 f3bd
00000030: 84aa 003d 8657 c73c db6b 433d 835d d5bd
00000040: ae99 5dbe 80aa 9fbc d47e 27be 09a3 863c
00000050: f4c0 b23d 4194 663c 61ec 723b 0271 853d
00000060: bb1a 06be 319b a53c 9068 693d cce9 c6bb
00000070: 54c8 2abc f145 873d 4dce abbd 4d43 e5bd
00000080: 0676 513d ada2 83bd 808b 17be c392 6fbb
00000090: 0223 c6bc 1bf8 06bd 0393 f7bb 7a69 e63d
000000a0: 4cbe de3d 3010 03be 7b9a 563d 3650 05be
000000b0: 41d1 7b3d e96d 86bd 5296 1f3c 7ff1 8c3c
000000c0: 3e05 1d3e 0b2a 003e f725 403e ee14 1a3e
000000d0: c2a1 cfbc d32c 923c 0766 6c3d 4def 5f3e
000000e0: afc5 283e 82f9 e13d 3b0f cebc b549 acbe
000000f0: 2285 563d 0b20 c9bd 6aa6 9cbd 7305 e13d
00000100: 9b47 2cbd 6df2 143e ac0f 6abe 9829 25be
00000110: 4582 71bc 41f7 2d3e fdbf eebc 279d 193e
00000120: 56a4 c33d c1e5 223e d19b 75bc 4a59 4fbd
00000130: 8d41 29bd 2736 073e a190 c1bd fc0b 1f3e
00000140: fab5 1c3d 3022 953c 083c 723d 5185 cabd
00000150: 2bda e8bd 06ea b93c 8de4 7a3a 4263 8d3b
00000160: ae8c b23d 9abd f0bc 968a 53bd 7345 4ebe
00000170: aa77 153d 9c3b 2ebe 0866 d93d 6f99 b1bd
00000180: 538c 9abd ac04 6cbd 3707 b1bd 2392 723d
00000190: 0141 ed3d aa7d e6bd ac2b aa3d 0033 17be
000001a0: b7da 553e 517c b03d 2e4b febd b015 04be
000001b0: 872f c13a 8f7b 69bd 430d b13d 22e1 bcbc
000001c0: f31c 0a3d 31e6 c33c 19fd 61bd ee99 173d
000001d0: 4ffc a2bd 0f0b 3bbd fb3d 41be b99b 883e
000001e0: 9340 703d da5b 0dbe e20f 923d bc22 d8bd
000001f0: 6fa9 08bd 23c6 573d 1ade d83d 812d d23d
00000200: 7b02 b0bd 4f77 273e 8d4b e13d 12cb 263c
00000210: f00e ba3c b5d8 60bd f772 35bd 4c15 9b3c
00000220: 2c70 b0bd 6c64 4cbd 9f95 243d 0c6f ed3c
00000230: 4502 e038 44af bfbd c159 c6bd d8dd 00bd
00000240: 7b75 023e 6ae5 f53d 43d5 1b3e 23c7 d9bc
00000250: f48e b8bd 9145 e13d 5550 4e3e 97e6 653d
00000260: a0fb 343e 5452 af3c 3854 7bbb 7628 843e
00000270: cad2 29be d99a 1abd 6439 cbbb 3587 f8bb
00000280: 7ca2 223d c66a 85be 2823 0bbd c3e8 b7bd
00000290: ca61 93bd 6530 87bd cbff 41be 14f7 16bd
000002a0: fcdc c2bd ccd8 6f3b 1cb6 e2bc 5046 28bd
000002b0: 3ef1 c0bc 4f37 4c3e ec89 ca3d 2da9 233c
000002c0: 9712 5dbd 5e13 883d b9aa 463e bc00 723d
000002d0: 4382 673d bb3a 9a3d 08f7 b9bb 2eb7 173e
000002e0: f714 6fbe 0f29 db3d 9c83 36be 117e e4bc
000002f0: 3ecd f83c cc85 353d 8350 6e3d 38bd c9bd
00000300: 0163 a63c d972 85bd 30f2 2bbc 79bc 5abe
00000310: 22a5 9f3c 271c 6b3d 849b ae3d b136 9f3b
00000320: e833 da3d 82fa 283d fc99 f13d 0507 eb3d
00000330: a968 2c3e 0be6 043d fa96 3cbe e43a 0c3d
00000340: 67b3 a8bd 48c3 f8bd 3aea e2bd 92ee c8bd
00000350: 989b af3d 98a3 453c 6229 cb3d cadf 32bd
00000360: e34d 07be 5405 5a3d 109f c0bd 9046 283e
00000370: 5d7b b53b f336 abbd c5be 733d 8335 a3bd
00000380: e5aa 1b3e fe34 c13d d8e0 d7bd 6d08 2c3d
00000390: 7851 a0bd ad39 053e 97d5 963d db6c 3dbd
000003a0: 990e acbd 80d1 1f3e ceb1 32bd e7b5 e93d
000003b0: 4125 35be c46b b53d 54ad d13b eafd 273c
000003c0: faea 833c 8568 8ebd 190a 1abc 3e10 20be
000003d0: 93ac 0b3e d4ff febd 7ffe 8fbd e36b 6a3d
000003e0: 7807 2abd f40d d43d db55 1e3b dcd1 d8bd
000003f0: 1c93 f6bd ca6f b23d 0bba 053e e704 5ebc

w1v.weight f4 [25, 25]
0.19912772 0.03223978 0.15189911 0.044771153 0.0890848 -0.08234783 -0.20860974 -0.04110277
0.004785533 -0.010648865 0.16218056 -0.009861113 -0.16492239 0.008732006 -0.11807405 -0.23101628
-0.36732262 -0.3241835 -0.15979953 -0.22458594 -0.040023282 -0.009695122 0.40582648 -0.16389571
-0.10721008 0.0864344 0.0733326 -0.026796684 -0.12974074 0.109027386 -0.15474465 -0.1123834
0.019469276 0.0127405925 -0.10587497 0.049925487 -0.08273267 -0.07252066 -0.038582787 0.07964199
0.13113934 -0.013331685 -0.034331553 -0.14262411 -0.015414186 -0.09800043 0.1153942 0.20720011
-0.01656394 0.043157384 0.034312174 0.09214635 -0.09114626 -0.16173436 0.15126598 -0.3046468
-0.14471182 0.097581245 -0.050696034 -0.21599606 0.14579853 -0.22394906 0.09125984 -0.13044342
-0.20728062 0.050050445 -0.2875691 -0.112174064 0.035565875 0.078211404 -0.0008062847 0.33474144
0.35966226 -0.057832927 -0.16094945 0.14349125 -0.09695942 0.041872557 0.10951767 -0.016060457
0.01648348 0.034698665 0.16128793 -0.08730562 -0.11054405 0.055235922 -0.13166362 0.030011766
-0.12791753 -0.15906766 0.07973457 -0.25219947 -0.001048807 0.08275532 -0.012103363 0.048412282
0.039723437 0.119821265 -0.10949308 -0.05365538 -0.07486471 -0.10594662 0.1115515 -0.04554513
-0.038201958 0.038720906 -0.10638648 0.048278086 -0.0730346 -0.013374995 -0.011564199 -0.1436253
0.039668784 -0.120930545 -0.13173859 0.19918936 -0.19789208 0.07058289 -0.058315128 0.2755201
-0.13351125 0.06830952 0.1517023 0.08923461 -0.15042372 -0.06194113 -0.06545298 -0.1244208
-0.060292162 0.06580816 -0.04862984 -0.055835247 0.10052272 -0.04937313 -0.09908188 0.13500518
-0.050453153 0.13682218 -0.24599428 -0.0027880606 0.11963072 -0.27886054 0.05855446 0.03081491
0.020453012 -0.15468426 -0.03842491 0.16283168 -0.15877068 0.016159331 0.15153944 -0.013445152
-0.20163244 -0.07752734 0.22730185 -0.10074054 -0.121379584 0.08182973 -0.2893714 -0.0026590428
0.09068276 -0.12452181 -0.1732099 -0.04212312 -0.35695332 0.007779523 -0.16259181 -0.2741148
-0.12113776 -0.22617923 -0.20392637 -0.046288118 0.09269137 -0.097429976 -0.10339468 0.10462412
-0.14602897 0.0050475937 -0.034940723 0.07597684 -0.39739853 0.19007002 -0.05631905 -0.04172352
-0.29240474 0.1268825 -0.22985624 -0.35731372 0.10988561 -0.18874046 0.02073926 -0.25646827
0.022780644 -0.15417583 0.0043600337 0.013779451 0.15795204 0.15887344 0.023421217 -0.103302024
0.017137656 0.025819317 0.2047728 0.020463053 0.0099217305 -0.12978029 0.03955308 -0.06884604
0.07635361 -0.022287747 -0.03087804 -0.08262802 -0.049566824 -0.112984195 -0.004778843 0.12214163
-0.30236793 -0.059008587 -0.095800504 0.1459469 -0.117773 0.08497526 0.034690257 -0.069668144
-0.040104933 -0.043283947 -0.09255744 -0.055930395 -0.076419026 0.041893303 -0.016093863 0.07837935
0.048348106 0.08588761 -0.12872498 0.17083994 -0.04667172 0.19738205 -0.05300932 0.017482623
0.10374125 -0.18173319 -0.046318762 -0.02274438 0.21600355 -0.13025096 -0.14514276 -0.012987917
-0.041777864 0.01793215 0.21919787 0.07452432 -0.03396236 0.015393463 0.023372406 -0.052664824
00000000: 23e8 4b3e dc0d 043d 718b 1b3e f561 373d
00000010: 1772 b63d fba5 a8bd cb9d 55be 615b 28bd
00000020: f6cf 9c3b 9478 2ebc a912 263e 8190 21bc
00000030: 6ae1 28be b010 0f3c cfd0 f1bd 888f 6cbe
00000040: b611 bcbe 61fb a5be 7da2 23be dbf9 65be
00000050: 74ef 23bd 4ad8 1ebc 7dc8 cf3e 47d4 27be
00000060: f590 dbbd 8504 b13d 672f 963d b884 dbbc
00000070: c2da 04be c049 df3d 6275 1ebe 4529 e6bd
00000080: 087e 9f3c ebbd 503c fad4 d8bd ab7e 4c3d
00000090: bf6f a9bd b685 94bd fc08 1ebd 571b a33d
000000a0: 6449 063e 246d 5abc 3e9f 0cbd 0e0c 12be
000000b0: c88b 7cbc 73b4 c8bd cb53 ec3d 442c 543e
000000c0: 1ab1 87bc ccc5 303d ec8a 0c3d 3ab7 bc3d
000000d0: e4aa babd b19d 25be 78e5 1a3e aafa 9bbe
000000e0: 562f 14be add8 c73d a5a6 4fbd 122e 5dbe
000000f0: 364c 153e e752 65be 70e6 ba3d f692 05be
00000100: 5f41 54be b201 4d3d 423c 93be 84bb e5bd
00000110: 86ad 113d 4d2d a03d da5c 53ba 3b63 ab3e
00000120: a725 b83e 38e2 6cbd efcf 24be 5fef 123e
00000130: a992 c6bd 8f82 2b3d cd4a e03d 3891 83bc
00000140: 5d08 873c 3020 0e3d aa28 253e 4acd b2bd
00000150: eb64 e2bd 103f 623d d4d2 06be 3cdb f53c
00000160: d0fc 02be a2e2 22be e14b a33d 4a20 81be
00000170: 2078 89ba 9f7b a93d 2f4d 46bc f54b 463d
00000180: 0bb5 223d da64 f53d e83d e0bd bec5 5bbd
00000190: ab52 99bd 8bfa d8bd 1d75 e43d 888d 3abd
000001a0: a879 1cbd d099 1e3d 28e1 d9bd 3ebf 453d
000001b0: 2a93 95bd cc22 5bbc c477 3dbc 8312 13be
000001c0: bc7b 223d 6faa f7bd 7be6 06be 4cf8 4b3e
000001d0: 39a4 4abe c38d 903d d8db 6ebd f810 8d3e
000001e0: 2cb7 08be dde5 8b3d d957 1b3e a3c0 b63d
000001f0: ad08 1abe fbb5 7dbd 360c 86bd 55d0 febd
00000200: eaf4 76bd 6ec6 863d 1530 47bd 80b3 64bd
00000210: dbde cd3d 7b3b 4abd 71eb cabd cc3e 0a3e
00000220: f7a7 4ebd 1d1b 0c3e ede5 7bbe e5b7 36bb
00000230: f300 f53d cfc6 8ebe cdd6 6f3d 8d6f fc3c
00000240: 138d a73c 8d65 1ebe 7063 1dbd 59bd 263e
00000250: c894 22be 9360 843c 282d 1b3e 0e49 5cbc
00000260: bc78 4ebe a7c6 9ebd d1c1 683e 0e51 cebd
00000270: dc95 f8bd 5896 a73d 7d28 94be 5643 2ebb
00000280: e2b7 b93d 4a05 ffbd f05d 31be 4b89 2cbd
00000290: 96c2 b6be 5eeb fe3b 787e 26be c658 8cbe
000002a0: 1317 f8bd 879b 67be 13d2 50be 9c98 3dbd
000002b0: f9d4 bd3d 5e89 c7bd 97c0 d3bd 2c45 d63d
000002c0: 9e88 15be 4966 a53b 011e 0fbd bf99 9b3d
000002d0: d277 cbbe b7a1 423e ceae 66bd 48e6 2abd
000002e0: 13b6 95be 7ced 013e 6f5f 6bbe d3f1 b6be
000002f0: b50b e13d 2e45 41be 61e5 a93c cf4f 83be
00000300: 799e ba3c 45e0 1dbe 9dde 8e3b 35c3 613c
00000310: 2ebe 213e b8af 223e dadd bf3c 0390 d3bd
00000320: 4564 8c3c 0883 d33c f6af 513e 22a2 a73c
00000330: c18e 223c 20e5 04be 6902 223d 27ff 8cbd
00000340: 485f 9c3d cb94 b6bc f1f3 fcbc e138 a9bd
00000350: 9506 4bbd 4264 e7bd d797 9cbb 6425 fa3d
00000360: f8cf 9abe fdb2 71bd 0e33 c4bd 1b73 153e
00000370: f832 f1bd 8207 ae3d 5f17 0e3d 2cae 8ebd
00000380: 1245 24bd 824a 31bd c18e bdbd 4517 65bd
00000390: 9481 9cbd 5098 2b3d 47d7 83bc 5a85 a03d
000003a0: aa08 463d d8e5 af3d 7bd0 03be aaf0 2e3e
000003b0: d82a 3fbd 851e 4a3e 4d20 59bd b837 8f3c
000003c0: 4b76 d43d 4418 3abe beb8 3dbd 6c52 babc
000003d0: 0930 5d3e 8260 05be 4ea0 14be 46cb 54bc
000003e0: 441f 2bbd 72e6 923c 6875 603e 35a0 983d
000003f0: 1e1c 0bbd dd34 7c3c 7d77 bf3c 12b7 57bd

i_attn_layers.1.weight f4 [1, 25]
-0.0031103187 -0.01641633 0.000104396044 0.013928917 -0.0015771916 0.008313886 -0.023088269 -0.01953753
-0.00057357835 -0.021191565 0.012172346 -0.10990518 0.0076969056 -0.01903454 0.028857207 -0.0064818133
0.0058036274 0.0007225451 0.0008630858 0.00054235855 0.00016593141 0.0072401925 1.1663698e-06 0.0062781647
-0.0075439196
00000000: 7dd6 4bbb 8a7b 86bc 33ef da38 1d36 643c
00000010: c5b9 ceba f736 083c 9c23 bdbc 2c0d a0bc
00000020: 315c 16ba ef99 adbc 856e 473c f815 e1bd
00000030: 5336 fc3b 53ee 9bbc f365 ec3c 6465 d4bb
00000040: 5b2c be3b 2e69 3d3a b540 623a 112d 0e3a
00000050: e0fd 2d39 233f ed3b 298c 9c35 10b9 cd3b
00000060: fc32 f7bb
